…
|    |    └─LeakyReLU: 3-18                        --
|    |    └─BatchNorm2d: 3-19                      512
|    |    └─Dropout2d: 3-20                        --
|    └─BasicConv: 2-15                             --
|    |    └─Conv2d: 3-21                           10,280
===========================================================================
Total params: 15,691,048
Trainable params: 15,691,048
Non-trainable params: 0
===========================================================================
2025-01-25 22:06:06,318 DataParallel(
  (module): DeepGCN(
    (dynamic_head): DynamicEdgeConvLayer(
      (mlp): Sequential(
        (0): Linear(in_features=6, out_features=256, bias=True)
        (1): ReLU()
        (2): Linear(in_features=256, out_features=256, bias=True)
        (3): ReLU()
      )
      (conv): DynamicEdgeConv(nn=Sequential(
        (0): Linear(in_features=6, out_features=256, bias=True)
        (1): ReLU()
        (2): Linear(in_features=256, out_features=256, bias=True)
        (3): ReLU()
      ), k=15)
      (norm): BatchNorm1d(256, eps=1e-05, momentum=0.1, affine=True, track_running_stats=True)
    )
    (backbone): Sequential(
      (0): DenseDynBlock2d(
        (body): DynConv2d(
          (gconv): GraphTransformerLayer(
            (transformer): TransformerConv(256, 64, heads=4)
            (feed_forward): Sequential(
              (0): Linear(in_features=256, out_features=512, bias=True)
              (1): ReLU()
              (2): Dropout(p=0.2, inplace=False)
              (3): Linear(in_features=512, out_features=256, bias=True)
            )
            (activation): ReLU()
          )
          (dilated_knn_graph): DenseDilatedKnnGraph(
            (_dilated): DenseDilated()
          )
        )
      )
      (1): DenseDynBlock2d(
        (body): DynConv2d(
          (gconv): GraphTransformerLayer(
            (transformer): TransformerConv(512, 64, heads=4)
            (feed_forward): Sequential(
              (0): Linear(in_features=256, out_features=512, bias=True)
              (1): ReLU()
              (2): Dropout(p=0.2, inplace=False)
              (3): Linear(in_features=512, out_features=256, bias=True)
            )
            (activation): ReLU()
          )
          (dilated_knn_graph): DenseDilatedKnnGraph(
            (_dilated): DenseDilated()
          )
        )
      )
      (2): DenseDynBlock2d(
        (body): DynConv2d(
          (gconv): GraphTransformerLayer(
            (transformer): TransformerConv(768, 64, heads=4)
            (feed_forward): Sequential(
              (0): Linear(in_features=256, out_features=512, bias=True)
              (1): ReLU()
              (2): Dropout(p=0.2, inplace=False)
              (3): Linear(in_features=512, out_features=256, bias=True)
            )
            (activation): ReLU()
          )
          (dilated_knn_graph): DenseDilatedKnnGraph(
            (_dilated): DenseDilated()
          )
        )
      )
      (3): DenseDynBlock2d(
        (body): DynConv2d(
          (gconv): GraphTransformerLayer(
            (transformer): TransformerConv(1024, 64, heads=4)
            (feed_forward): Sequential(
              (0): Linear(in_features=256, out_features=512, bias=True)
              (1): ReLU()
              (2): Dropout(p=0.2, inplace=False)
              (3): Linear(in_features=512, out_features=256, bias=True)
            )
            (activation): ReLU()
          )
          (dilated_knn_graph): DenseDilatedKnnGraph(
            (_dilated): DenseDilated()
          )
        )
      )
      (4): DenseDynBlock2d(
        (body): DynConv2d(
          (gconv): GraphTransformerLayer(
            (transformer): TransformerConv(1280, 64, heads=4)
            (feed_forward): Sequential(
              (0): Linear(in_features=256, out_features=512, bias=True)
              (1): ReLU()
              (2): Dropout(p=0.2, inplace=False)
              (3): Linear(in_features=512, out_features=256, bias=True)
            )
            (activation): ReLU()
          )
          (dilated_knn_graph): DenseDilatedKnnGraph(
            (_dilated): DenseDilated()
          )
        )
      )
      (5): DenseDynBlock2d(
        (body): DynConv2d(
          (gconv): GraphTransformerLayer(
            (transformer): TransformerConv(1536, 64, heads=4)
            (feed_forward): Sequential(
              (0): Linear(in_features=256, out_features=512, bias=True)
              (1): ReLU()
              (2): Dropout(p=0.2, inplace=False)
              (3): Linear(in_features=512, out_features=256, bias=True)
            )
            (activation): ReLU()
          )
          (dilated_knn_graph): DenseDilatedKnnGraph(
            (_dilated): DenseDilated()
          )
        )
      )
    )
    (fusion_block): BasicConv(
      (0): Conv2d(7168, 1024, kernel_size=(1, 1), stride=(1, 1), bias=False)
      (1): LeakyReLU(negative_slope=0.2)
      (2): BatchNorm2d(1024, eps=1e-05, momentum=0.1, affine=True, track_running_stats=True)
    )
    (prediction): Sequential(
      (0): BasicConv(
        (0): Conv2d(2048, 512, kernel_size=(1, 1), stride=(1, 1))
        (1): LeakyReLU(negative_slope=0.2)
        (2): BatchNorm2d(512, eps=1e-05, momentum=0.1, affine=True, track_running_stats=True)
        (3): Dropout2d(p=0.5, inplace=False)
      )
      (1): BasicConv(
        (0): Conv2d(512, 256, kernel_size=(1, 1), stride=(1, 1))
        (1): LeakyReLU(negative_slope=0.2)
        (2): BatchNorm2d(256, eps=1e-05, momentum=0.1, affine=True, track_running_stats=True)
        (3): Dropout2d(p=0.5, inplace=False)
      )
      (2): BasicConv(
        (0): Conv2d(256, 40, kernel_size=(1, 1), stride=(1, 1))
      )
    )
  )
)
2025-01-25 22:06:06,321 ===> loading pre-trained ...
2025-01-25 22:06:06,322 ===> Loading checkpoint '/user/mahmoud.abdellahi/u12741/Project/deep_gcns_torch-master/examples/modelnet_cls/log/modelnet_cls-dense-trans-n7-C256-norm_batch-k15-drop0.5-lr0.0001-B32-seed1_20250104-172923_34882ee0-e264-45dc-9800-3c55c60552fb/checkpoint/modelnet_cls-dense-trans-n7-C256-norm_batch-k15-drop0.5-lr0.0001-B32-seed1-best_model.pth'
…
