…
2025-01-12 16:38:24,603 writer:<torch.utils.tensorboard.writer.SummaryWriter object at 0x7f86cd8ddb80>
2025-01-12 16:38:24,603 epoch:-1
2025-01-12 16:38:24,603 step:-1
2025-01-12 16:38:24,603 loglevel:info
2025-01-12 16:38:24,603 ==========     args END    =============
2025-01-12 16:38:24,603 

2025-01-12 16:38:24,603 ===> Phase is train.
2025-01-12 16:38:24,608 ===> Creating data-loader ...
2025-01-12 16:38:28,799 ===> Loading ModelNet40 from /user/ahmed.assy/u12745/Dataset. number of classes equal to 40
2025-01-12 16:38:28,799 ===> Loading the network ...
2025-01-12 16:38:29,129 DataParallel(
  (module): DeepGCN(
    (dynamic_head): DynamicEdgeConvLayer(
      (mlp): Sequential(
        (0): Linear(in_features=6, out_features=64, bias=True)
        (1): ReLU()
        (2): Linear(in_features=64, out_features=64, bias=True)
        (3): ReLU()
      )
      (conv): DynamicEdgeConv(nn=Sequential(
        (0): Linear(in_features=6, out_features=64, bias=True)
        (1): ReLU()
        (2): Linear(in_features=64, out_features=64, bias=True)
        (3): ReLU()
      ), k=15)
      (norm): BatchNorm1d(64, eps=1e-05, momentum=0.1, affine=True, track_running_stats=True)
    )
    (backbone): Sequential(
      (0): ResDynBlock2d(
        (body): DynamicEdgeConvLayer(
          (mlp): Sequential(
            (0): Linear(in_features=128, out_features=64, bias=True)
            (1): ReLU()
            (2): Linear(in_features=64, out_features=64, bias=True)
            (3): ReLU()
          )
          (conv): DynamicEdgeConv(nn=Sequential(
            (0): Linear(in_features=128, out_features=64, bias=True)
            (1): ReLU()
            (2): Linear(in_features=64, out_features=64, bias=True)
            (3): ReLU()
          ), k=15)
          (norm): BatchNorm1d(64, eps=1e-05, momentum=0.1, affine=True, track_running_stats=True)
        )
      )
      (1): ResDynBlock2d(
        (body): DynamicEdgeConvLayer(
          (mlp): Sequential(
            (0): Linear(in_features=128, out_features=64, bias=True)
            (1): ReLU()
            (2): Linear(in_features=64, out_features=64, bias=True)
            (3): ReLU()
          )
          (conv): DynamicEdgeConv(nn=Sequential(
            (0): Linear(in_features=128, out_features=64, bias=True)
            (1): ReLU()
            (2): Linear(in_features=64, out_features=64, bias=True)
            (3): ReLU()
          ), k=15)
          (norm): BatchNorm1d(64, eps=1e-05, momentum=0.1, affine=True, track_running_stats=True)
        )
      )
      (2): ResDynBlock2d(
        (body): DynamicEdgeConvLayer(
          (mlp): Sequential(
            (0): Linear(in_features=128, out_features=64, bias=True)
            (1): ReLU()
            (2): Linear(in_features=64, out_features=64, bias=True)
            (3): ReLU()
          )
          (conv): DynamicEdgeConv(nn=Sequential(
            (0): Linear(in_features=128, out_features=64, bias=True)
            (1): ReLU()
            (2): Linear(in_features=64, out_features=64, bias=True)
            (3): ReLU()
          ), k=15)
          (norm): BatchNorm1d(64, eps=1e-05, momentum=0.1, affine=True, track_running_stats=True)
        )
      )
      (3): ResDynBlock2d(
        (body): DynamicEdgeConvLayer(
          (mlp): Sequential(
            (0): Linear(in_features=128, out_features=64, bias=True)
            (1): ReLU()
            (2): Linear(in_features=64, out_features=64, bias=True)
            (3): ReLU()
          )
          (conv): DynamicEdgeConv(nn=Sequential(
            (0): Linear(in_features=128, out_features=64, bias=True)
            (1): ReLU()
            (2): Linear(in_features=64, out_features=64, bias=True)
            (3): ReLU()
          ), k=15)
          (norm): BatchNorm1d(64, eps=1e-05, momentum=0.1, affine=True, track_running_stats=True)
        )
      )
      (4): ResDynBlock2d(
        (body): DynamicEdgeConvLayer(
          (mlp): Sequential(
            (0): Linear(in_features=128, out_features=64, bias=True)
            (1): ReLU()
            (2): Linear(in_features=64, out_features=64, bias=True)
            (3): ReLU()
          )
          (conv): DynamicEdgeConv(nn=Sequential(
            (0): Linear(in_features=128, out_features=64, bias=True)
            (1): ReLU()
            (2): Linear(in_features=64, out_features=64, bias=True)
            (3): ReLU()
          ), k=15)
          (norm): BatchNorm1d(64, eps=1e-05, momentum=0.1, affine=True, track_running_stats=True)
        )
      )
      (5): ResDynBlock2d(
        (body): DynamicEdgeConvLayer(
          (mlp): Sequential(
            (0): Linear(in_features=128, out_features=64, bias=True)
            (1): ReLU()
            (2): Linear(in_features=64, out_features=64, bias=True)
            (3): ReLU()
          )
          (conv): DynamicEdgeConv(nn=Sequential(
            (0): Linear(in_features=128, out_features=64, bias=True)
            (1): ReLU()
            (2): Linear(in_features=64, out_features=64, bias=True)
            (3): ReLU()
          ), k=15)
          (norm): BatchNorm1d(64, eps=1e-05, momentum=0.1, affine=True, track_running_stats=True)
        )
      )
      (6): ResDynBlock2d(
        (body): DynamicEdgeConvLayer(
          (mlp): Sequential(
            (0): Linear(in_features=128, out_features=64, bias=True)
            (1): ReLU()
            (2): Linear(in_features=64, out_features=64, bias=True)
            (3): ReLU()
          )
          (conv): DynamicEdgeConv(nn=Sequential(
            (0): Linear(in_features=128, out_features=64, bias=True)
            (1): ReLU()
            (2): Linear(in_features=64, out_features=64, bias=True)
            (3): ReLU()
          ), k=15)
          (norm): BatchNorm1d(64, eps=1e-05, momentum=0.1, affine=True, track_running_stats=True)
        )
      )
      (7): ResDynBlock2d(
        (body): DynamicEdgeConvLayer(
          (mlp): Sequential(
            (0): Linear(in_features=128, out_features=64, bias=True)
            (1): ReLU()
            (2): Linear(in_features=64, out_features=64, bias=True)
            (3): ReLU()
          )
          (conv): DynamicEdgeConv(nn=Sequential(
            (0): Linear(in_features=128, out_features=64, bias=True)
            (1): ReLU()
            (2): Linear(in_features=64, out_features=64, bias=True)
            (3): ReLU()
          ), k=15)
          (norm): BatchNorm1d(64, eps=1e-05, momentum=0.1, affine=True, track_running_stats=True)
        )
      )
      (8): ResDynBlock2d(
        (body): DynamicEdgeConvLayer(
          (mlp): Sequential(
            (0): Linear(in_features=128, out_features=64, bias=True)
            (1): ReLU()
            (2): Linear(in_features=64, out_features=64, bias=True)
            (3): ReLU()
          )
          (conv): DynamicEdgeConv(nn=Sequential(
            (0): Linear(in_features=128, out_features=64, bias=True)
            (1): ReLU()
            (2): Linear(in_features=64, out_features=64, bias=True)
            (3): ReLU()
          ), k=15)
          (norm): BatchNorm1d(64, eps=1e-05, momentum=0.1, affine=True, track_running_stats=True)
        )
      )
      (9): ResDynBlock2d(
        (body): DynamicEdgeConvLayer(
          (mlp): Sequential(
            (0): Linear(in_features=128, out_features=64, bias=True)
            (1): ReLU()
            (2): Linear(in_features=64, out_features=64, bias=True)
            (3): ReLU()
          )
          (conv): DynamicEdgeConv(nn=Sequential(
            (0): Linear(in_features=128, out_features=64, bias=True)
            (1): ReLU()
            (2): Linear(in_features=64, out_features=64, bias=True)
            (3): ReLU()
          ), k=15)
          (norm): BatchNorm1d(64, eps=1e-05, momentum=0.1, affine=True, track_running_stats=True)
        )
      )
      (10): ResDynBlock2d(
        (body): DynamicEdgeConvLayer(
          (mlp): Sequential(
            (0): Linear(in_features=128, out_features=64, bias=True)
            (1): ReLU()
            (2): Linear(in_features=64, out_features=64, bias=True)
            (3): ReLU()
          )
          (conv): DynamicEdgeConv(nn=Sequential(
            (0): Linear(in_features=128, out_features=64, bias=True)
            (1): ReLU()
            (2): Linear(in_features=64, out_features=64, bias=True)
            (3): ReLU()
          ), k=15)
          (norm): BatchNorm1d(64, eps=1e-05, momentum=0.1, affine=True, track_running_stats=True)
        )
      )
      (11): ResDynBlock2d(
        (body): DynamicEdgeConvLayer(
          (mlp): Sequential(
            (0): Linear(in_features=128, out_features=64, bias=True)
            (1): ReLU()
            (2): Linear(in_features=64, out_features=64, bias=True)
            (3): ReLU()
          )
          (conv): DynamicEdgeConv(nn=Sequential(
            (0): Linear(in_features=128, out_features=64, bias=True)
            (1): ReLU()
            (2): Linear(in_features=64, out_features=64, bias=True)
            (3): ReLU()
          ), k=15)
          (norm): BatchNorm1d(64, eps=1e-05, momentum=0.1, affine=True, track_running_stats=True)
        )
      )
      (12): ResDynBlock2d(
        (body): DynamicEdgeConvLayer(
          (mlp): Sequential(
            (0): Linear(in_features=128, out_features=64, bias=True)
            (1): ReLU()
            (2): Linear(in_features=64, out_features=64, bias=True)
            (3): ReLU()
          )
          (conv): DynamicEdgeConv(nn=Sequential(
            (0): Linear(in_features=128, out_features=64, bias=True)
            (1): ReLU()
            (2): Linear(in_features=64, out_features=64, bias=True)
            (3): ReLU()
          ), k=15)
          (norm): BatchNorm1d(64, eps=1e-05, momentum=0.1, affine=True, track_running_stats=True)
        )
      )
    )
    (fusion_block): BasicConv(
      (0): Conv2d(896, 1024, kernel_size=(1, 1), stride=(1, 1), bias=False)
      (1): LeakyReLU(negative_slope=0.2)
      (2): BatchNorm2d(1024, eps=1e-05, momentum=0.1, affine=True, track_running_stats=True)
    )
    (prediction): Sequential(
      (0): BasicConv(
        (0): Conv2d(2048, 512, kernel_size=(1, 1), stride=(1, 1))
        (1): LeakyReLU(negative_slope=0.2)
        (2): BatchNorm2d(512, eps=1e-05, momentum=0.1, affine=True, track_running_stats=True)
        (3): Dropout2d(p=0.5, inplace=False)
      )
      (1): BasicConv(
        (0): Conv2d(512, 256, kernel_size=(1, 1), stride=(1, 1))
        (1): LeakyReLU(negative_slope=0.2)
        (2): BatchNorm2d(256, eps=1e-05, momentum=0.1, affine=True, track_running_stats=True)
        (3): Dropout2d(p=0.5, inplace=False)
      )
      (2): BasicConv(
        (0): Conv2d(256, 40, kernel_size=(1, 1), stride=(1, 1))
      )
    )
  )
)
2025-01-12 16:38:29,131 ===> loading pre-trained ...
2025-01-12 16:38:29,131 ===> No pre-trained model
2025-01-12 16:38:29,132 ===> Init the optimizer ...
2025-01-12 16:38:29,132 ===> Use AdamW
2025-01-12 16:38:29,133 ===> Init Metric ...
2025-01-12 16:38:29,137 ===> start training ...
2025-01-12 16:42:02,726 Got a new best model on Test with Overall ACC 0.5089. Its avg acc is 0.3751
…
