…
2025-01-12 13:02:12,477 loglevel:info
2025-01-12 13:02:12,477 ==========     args END    =============
2025-01-12 13:02:12,477 

2025-01-12 13:02:12,477 ===> Phase is train.
2025-01-12 13:02:12,481 ===> Creating data-loader ...
2025-01-12 13:02:16,247 ===> Loading ModelNet40 from /user/ahmed.assy/u12745/Dataset. number of classes equal to 40
2025-01-12 13:02:16,247 ===> Loading the network ...
2025-01-12 13:02:16,540 DeepGCN(
  (knn): DenseDilatedKnnGraph(
    (_dilated): DenseDilated()
  )
  (head): GraphConv2d(
    (gconv): EdgeConvLayer(
      (edge_conv): EdgeConv(nn=BasicLayer(
        (0): Linear(in_features=6, out_features=64, bias=False)
        (1): ReLU()
        (2): BatchNorm1d(64, eps=1e-05, momentum=0.1, affine=True, track_running_stats=True)
        (3): Linear(in_features=64, out_features=64, bias=False)
        (4): ReLU()
        (5): BatchNorm1d(64, eps=1e-05, momentum=0.1, affine=True, track_running_stats=True)
      ))
      (norm): BatchNorm1d(64, eps=1e-05, momentum=0.1, affine=True, track_running_stats=True)
    )
  )
  (backbone): Sequential(
    (0): ResDynBlock2d(
      (body): DynConv2d(
        (gconv): EdgeConvLayer(
          (edge_conv): EdgeConv(nn=BasicLayer(
            (0): Linear(in_features=128, out_features=64, bias=True)
            (1): ReLU()
            (2): BatchNorm1d(64, eps=1e-05, momentum=0.1, affine=True, track_running_stats=True)
            (3): Linear(in_features=64, out_features=64, bias=True)
            (4): ReLU()
            (5): BatchNorm1d(64, eps=1e-05, momentum=0.1, affine=True, track_running_stats=True)
          ))
          (norm): BatchNorm1d(64, eps=1e-05, momentum=0.1, affine=True, track_running_stats=True)
        )
        (dilated_knn_graph): DenseDilatedKnnGraph(
          (_dilated): DenseDilated()
        )
      )
    )
    (1): ResDynBlock2d(
      (body): DynConv2d(
        (gconv): EdgeConvLayer(
          (edge_conv): EdgeConv(nn=BasicLayer(
            (0): Linear(in_features=128, out_features=64, bias=True)
            (1): ReLU()
            (2): BatchNorm1d(64, eps=1e-05, momentum=0.1, affine=True, track_running_stats=True)
            (3): Linear(in_features=64, out_features=64, bias=True)
            (4): ReLU()
            (5): BatchNorm1d(64, eps=1e-05, momentum=0.1, affine=True, track_running_stats=True)
          ))
          (norm): BatchNorm1d(64, eps=1e-05, momentum=0.1, affine=True, track_running_stats=True)
        )
        (dilated_knn_graph): DenseDilatedKnnGraph(
          (_dilated): DenseDilated()
        )
      )
    )
    (2): ResDynBlock2d(
      (body): DynConv2d(
        (gconv): EdgeConvLayer(
          (edge_conv): EdgeConv(nn=BasicLayer(
            (0): Linear(in_features=128, out_features=64, bias=True)
            (1): ReLU()
            (2): BatchNorm1d(64, eps=1e-05, momentum=0.1, affine=True, track_running_stats=True)
            (3): Linear(in_features=64, out_features=64, bias=True)
            (4): ReLU()
            (5): BatchNorm1d(64, eps=1e-05, momentum=0.1, affine=True, track_running_stats=True)
          ))
          (norm): BatchNorm1d(64, eps=1e-05, momentum=0.1, affine=True, track_running_stats=True)
        )
        (dilated_knn_graph): DenseDilatedKnnGraph(
          (_dilated): DenseDilated()
        )
      )
    )
  )
  (fusion_block): BasicConv(
    (0): Conv2d(256, 1024, kernel_size=(1, 1), stride=(1, 1), bias=False)
    (1): LeakyReLU(negative_slope=0.2)
    (2): BatchNorm2d(1024, eps=1e-05, momentum=0.1, affine=True, track_running_stats=True)
  )
  (prediction): Sequential(
    (0): BasicConv(
      (0): Conv2d(2048, 512, kernel_size=(1, 1), stride=(1, 1))
      (1): LeakyReLU(negative_slope=0.2)
      (2): BatchNorm2d(512, eps=1e-05, momentum=0.1, affine=True, track_running_stats=True)
      (3): Dropout2d(p=0.5, inplace=False)
    )
    (1): BasicConv(
      (0): Conv2d(512, 256, kernel_size=(1, 1), stride=(1, 1))
      (1): LeakyReLU(negative_slope=0.2)
      (2): BatchNorm2d(256, eps=1e-05, momentum=0.1, affine=True, track_running_stats=True)
      (3): Dropout2d(p=0.5, inplace=False)
    )
    (2): BasicConv(
      (0): Conv2d(256, 40, kernel_size=(1, 1), stride=(1, 1))
    )
  )
)
2025-01-12 13:02:16,541 ===> loading pre-trained ...
2025-01-12 13:02:16,541 ===> No pre-trained model
2025-01-12 13:02:16,541 ===> Init the optimizer ...
2025-01-12 13:02:16,541 ===> Use AdamW
2025-01-12 13:02:16,542 ===> Init Metric ...
2025-01-12 13:02:16,546 ===> start training ...
